…
usion_method='clifford', embedding_type='only_spatial', spatial_dim=32, temporal_dim=32, output_dim=64, backbone='TGAT', device='cuda:0', seed=0, save_model_name='STAMPEDE-TGAT-clifford-only_spatial_seed0')
2025-08-31 10:24:21,667 - root - INFO - Instantiating model: TGAT
2025-08-31 10:24:21,725 - root - INFO - model -> Sequential(
  (0): TGAT(
    (feature_preprocessor): STAMPEDE_Feature_Processor(
      (spatial_encoder): DynamicSpatialEncoder(
        (gnn): GIN(
          (layers): ModuleList(
            (0-1): 2 x GINLayer()
          )
          (batch_norms): ModuleList(
            (0): BatchNorm1d(32, eps=1e-05, momentum=0.1, affine=True, track_running_stats=True)
          )
        )
        (node_feature_projection): Linear(in_features=1, out_features=32, bias=True)
      )
      (temporal_encoder): CombinedLeTE(
        (w1_fourier): Linear(in_features=1, out_features=16, bias=True)
        (w1_spline): Linear(in_features=1, out_features=16, bias=True)
        (w2_fourier): FourierSeries()
        (w2_spline): Spline()
        (layernorm): LayerNorm((32,), eps=1e-05, elementwise_affine=True)
      )
      (fusion_layer): STAMPEDE_FusionLayer(
        (spatial_input_mlp): Sequential(
          (0): Linear(in_features=32, out_features=32, bias=True)
          (1): ReLU()
          (2): Dropout(p=0.1, inplace=False)
          (3): Linear(in_features=32, out_features=32, bias=True)
        )
        (temporal_input_mlp): Sequential(
          (0): Linear(in_features=32, out_features=32, bias=True)
          (1): ReLU()
          (2): Dropout(p=0.1, inplace=False)
          (3): Linear(in_features=32, out_features=32, bias=True)
        )
        (output_mlp): Sequential(
          (0): Linear(in_features=1024, out_features=1024, bias=True)
          (1): ReLU()
          (2): Dropout(p=0.1, inplace=False)
          (3): Linear(in_features=1024, out_features=64, bias=True)
        )
        (dropout_layer): Dropout(p=0.1, inplace=False)
        (layer_norm): LayerNorm((64,), eps=1e-05, elementwise_affine=True)
      )
      (feature_projection): MergeLayer(
        (fc1): Linear(in_features=32, out_features=172, bias=True)
        (fc2): Linear(in_features=172, out_features=172, bias=True)
        (act): ReLU()
      )
    )
    (time_encoder): TimeEncoder(
      (w): Linear(in_features=1, out_features=100, bias=True)
    )
    (temporal_conv_layers): ModuleList(
      (0-1): 2 x MultiHeadAttention(
        (query_projection): Linear(in_features=272, out_features=272, bias=False)
        (key_projection): Linear(in_features=444, out_features=272, bias=False)
        (value_projection): Linear(in_features=444, out_features=272, bias=False)
        (layer_norm): LayerNorm((272,), eps=1e-05, elementwise_affine=True)
        (residual_fc): Linear(in_features=272, out_features=272, bias=True)
        (dropout): Dropout(p=0.1, inplace=False)
      )
    )
    (merge_layers): ModuleList(
      (0-1): 2 x MergeLayer(
        (fc1): Linear(in_features=444, out_features=172, bias=True)
        (fc2): Linear(in_features=172, out_features=172, bias=True)
        (act): ReLU()
      )
    )
  )
  (1): MergeLayer(
    (fc1): Linear(in_features=344, out_features=172, bias=True)
    (fc2): Linear(in_features=172, out_features=1, bias=True)
    (act): ReLU()
  )
)
2025-08-31 10:24:21,725 - root - INFO - model name: STAMPEDE, backbone: TGAT, #parameters: 8869292 B
2025-08-31 11:01:59,288 - root - INFO - Epoch: 1, learning rate: 0.0001, train loss: 0.3627
2025-08-31 11:01:59,289 - root - INFO - train average_precision, 0.9205
2025-08-31 11:01:59,289 - root - INFO - train roc_auc, 0.9202
2025-08-31 11:01:59,290 - root - INFO - validate loss: 0.3366
…
