…
0.0001, dropout=0.1, gamma=0.5, num_epochs=2, optimizer='Adam', weight_decay=0.0, patience=20, val_ratio=0.15, test_ratio=0.15, num_runs=1, test_interval_epochs=1, negative_sample_strategy='random', max_interaction_times=10, load_best_configs=False, fusion_method='clifford', embedding_type='all', spatial_dim=64, temporal_dim=64, output_dim=172, backbone='TGAT', device='cuda:0', seed=0, save_model_name='TGAT_seed0')
2025-08-30 08:26:54,152 - root - INFO - Instantiating model: TGAT
2025-08-30 08:26:54,420 - root - INFO - model -> Sequential(
  (0): TGAT(
    (time_encoder): TimeEncoder(
      (w): Linear(in_features=1, out_features=100, bias=True)
    )
    (temporal_conv_layers): ModuleList(
      (0-1): 2 x MultiHeadAttention(
        (query_projection): Linear(in_features=272, out_features=272, bias=False)
        (key_projection): Linear(in_features=444, out_features=272, bias=False)
        (value_projection): Linear(in_features=444, out_features=272, bias=False)
        (layer_norm): LayerNorm((272,), eps=1e-05, elementwise_affine=True)
        (residual_fc): Linear(in_features=272, out_features=272, bias=True)
        (dropout): Dropout(p=0.1, inplace=False)
      )
    )
    (merge_layers): ModuleList(
      (0-1): 2 x MergeLayer(
        (fc1): Linear(in_features=444, out_features=172, bias=True)
        (fc2): Linear(in_features=172, out_features=172, bias=True)
        (act): ReLU()
      )
    )
  )
  (1): MergeLayer(
    (fc1): Linear(in_features=344, out_features=172, bias=True)
    (fc2): Linear(in_features=172, out_features=1, bias=True)
    (act): ReLU()
  )
)
2025-08-30 08:26:54,420 - root - INFO - model name: TGAT, backbone: TGAT, #parameters: 4211780 B
2025-08-30 08:28:23,582 - root - INFO - Epoch: 1, learning rate: 0.0001, train loss: 0.3613
2025-08-30 08:28:23,583 - root - INFO - train average_precision, 0.9223
2025-08-30 08:28:23,583 - root - INFO - train roc_auc, 0.9225
2025-08-30 08:28:23,583 - root - INFO - validate loss: 0.3361
…
