…
ighted', embedding_type='only_spatial', spatial_dim=32, temporal_dim=32, output_dim=64, backbone='DyGMamba', device='cuda:0', seed=0, save_model_name='STAMPEDE-DyGMamba-weighted-only_spatial_seed0')
2025-08-30 18:19:23,786 - root - INFO - Instantiating model: DyGMamba
2025-08-30 18:19:24,275 - root - INFO - model -> Sequential(
  (0): DyGMamba(
    (feature_preprocessor): STAMPEDE_Feature_Processor(
      (spatial_encoder): DynamicSpatialEncoder(
        (gnn): GIN(
          (layers): ModuleList(
            (0-1): 2 x GINLayer()
          )
          (batch_norms): ModuleList(
            (0): BatchNorm1d(32, eps=1e-05, momentum=0.1, affine=True, track_running_stats=True)
          )
        )
        (node_feature_projection): Linear(in_features=1, out_features=32, bias=True)
      )
      (temporal_encoder): CombinedLeTE(
        (w1_fourier): Linear(in_features=1, out_features=16, bias=True)
        (w1_spline): Linear(in_features=1, out_features=16, bias=True)
        (w2_fourier): FourierSeries()
        (w2_spline): Spline()
        (layernorm): LayerNorm((32,), eps=1e-05, elementwise_affine=True)
      )
      (fusion_layer): STAMPEDE_FusionLayer(
        (spatial_input_mlp): Sequential(
          (0): Linear(in_features=32, out_features=32, bias=True)
          (1): ReLU()
          (2): Dropout(p=0.1, inplace=False)
          (3): Linear(in_features=32, out_features=32, bias=True)
        )
        (temporal_input_mlp): Sequential(
          (0): Linear(in_features=32, out_features=32, bias=True)
          (1): ReLU()
          (2): Dropout(p=0.1, inplace=False)
          (3): Linear(in_features=32, out_features=32, bias=True)
        )
        (output_mlp): Sequential(
          (0): Linear(in_features=32, out_features=64, bias=True)
          (1): ReLU()
          (2): Dropout(p=0.1, inplace=False)
          (3): Linear(in_features=64, out_features=64, bias=True)
        )
        (dropout_layer): Dropout(p=0.1, inplace=False)
        (layer_norm): LayerNorm((64,), eps=1e-05, elementwise_affine=True)
      )
      (feature_projection): MergeLayer(
        (fc1): Linear(in_features=32, out_features=172, bias=True)
        (fc2): Linear(in_features=172, out_features=172, bias=True)
        (act): ReLU()
      )
    )
    (time_encoder): TimeEncoder(
      (w): Linear(in_features=1, out_features=100, bias=True)
    )
    (neighbor_co_occurrence_encoder): NIFEncoder(
      (nif_encode_layer): Sequential(
        (0): Linear(in_features=1, out_features=50, bias=True)
        (1): ReLU()
        (2): Linear(in_features=50, out_features=50, bias=True)
      )
    )
    (projection_layer): ModuleDict(
      (node): Linear(in_features=172, out_features=50, bias=True)
      (edge): Linear(in_features=172, out_features=50, bias=True)
      (time): Linear(in_features=100, out_features=50, bias=True)
      (neighbor_co_occurrence): Linear(in_features=50, out_features=50, bias=True)
    )
    (output_layer): Linear(in_features=100, out_features=172, bias=True)
    (output_layer_t_diff): Linear(in_features=25, out_features=172, bias=True)
    (mamba): ModuleList(
      (0-1): 2 x Mamba(
        (in_proj): Linear(in_features=100, out_features=200, bias=False)
        (conv1d): Conv1d(100, 100, kernel_size=(4,), stride=(1,), padding=(3,), groups=100)
        (act): SiLU()
        (x_proj): Linear(in_features=100, out_features=39, bias=False)
        (dt_proj): Linear(in_features=7, out_features=100, bias=True)
        (out_proj): Linear(in_features=100, out_features=100, bias=False)
      )
    )
    (mamba_t_diff): ModuleList(
      (0-1): 2 x Mamba(
        (in_proj): Linear(in_features=25, out_features=50, bias=False)
        (conv1d): Conv1d(25, 25, kernel_size=(4,), stride=(1,), padding=(3,), groups=25)
        (act): SiLU()
        (x_proj): Linear(in_features=25, out_features=34, bias=False)
        (dt_proj): Linear(in_features=2, out_features=25, bias=True)
        (out_proj): Linear(in_features=25, out_features=25, bias=False)
      )
    )
    (projection_layer_t_diff): Linear(in_features=100, out_features=25, bias=True)
    (projection_layer_t_diff_up): Linear(in_features=25, out_features=100, bias=True)
    (weightagg): Linear(in_features=100, out_features=1, bias=True)
    (reduce_layer): Linear(in_features=200, out_features=100, bias=True)
    (channel_norm): LayerNorm((100,), eps=1e-05, elementwise_affine=True)
    (channel_feedforward): FeedForwardNet(
      (ffn): Sequential(
        (0): Linear(in_features=100, out_features=400, bias=True)
        (1): GELU(approximate='none')
        (2): Dropout(p=0.1, inplace=False)
        (3): Linear(in_features=400, out_features=100, bias=True)
        (4): Dropout(p=0.1, inplace=False)
      )
    )
    (neighbor_selection_layer): Linear(in_features=100, out_features=100, bias=True)
  )
  (1): MergeLayerTD(
    (fc1): Linear(in_features=516, out_features=172, bias=True)
    (fc2): Linear(in_features=172, out_features=1, bias=True)
    (act): ReLU()
  )
)
2025-08-30 18:19:24,276 - root - INFO - model name: STAMPEDE, backbone: DyGMamba, #parameters: 1563072 B
